ThinkFlow Chat/chatbot_data.pth (torch, 12783 bytes, 8 tensors)

layer1.weight f4 [16, 90]
0.11230209 0.25922146 -0.15283272 0.23220761 0.38135856 -0.20902148 -0.07511835 0.2858275
-0.14160138 0.4147765 -0.17511687 0.28891855 -0.020648535 0.29257685 0.10409929 -0.032334488
-0.09857109 0.29715446 -0.18371789 0.055096686 -0.2017732 -0.13271022 0.15672259 -0.081134155
-0.26693362 -0.361549 0.45318642 -0.25609732 -0.26277435 0.1624496 0.37501374 0.38133338
-0.32690868 0.38204268 -0.35433322 -0.16067682 0.28934398 0.32839692 0.3136433 -0.15158647
0.11506467 0.4443002 0.04225655 -0.14046511 -0.14897169 -0.1059812 0.228466 0.31751338
-0.010381291 0.3812037 -0.07001875 -0.28232697 -0.15018804 -0.23247616 -0.347446 -0.20829329
-0.20647499 0.21498127 0.29589236 -0.12768908 -0.09234883 0.2680206 -0.2165825 0.0033598884
-0.020273136 -0.12369754 -0.21802673 -0.20165493 0.12698896 0.021179333 0.18133844 -0.24421394
-0.14964063 -0.17117842 -0.31358373 -0.06227379 -0.009864386 -0.12265026 -0.18205416 -0.05896793
0.23212855 0.13246498 -0.0522209 -0.1572354 -0.1932508 -0.11063648 0.009019593 -0.039797727
0.025106395 -0.15931825 0.19451164 0.087398306 -0.2431307 0.2470475 0.43147975 -0.075401835
0.065994896 -0.012046503 -0.054362 -0.24583863 -0.43280226 0.24732566 0.064208575 0.3110437
0.3390772 -0.09977432 0.01634483 -0.07031128 -0.12590957 -0.17371699 0.024921354 -0.1518751
0.24285994 0.046844963 -0.30920258 -0.43040565 0.33452705 -0.19226746 -0.037136443 0.18433838
-0.06713584 0.16654524 -0.3491974 -0.20132975 -0.31630588 -0.23036747 -0.13779321 -0.15794928
-0.156558 -0.11070274 0.12349055 0.20000869 0.34532872 -0.05018413 -0.19764377 -0.0939494
0.2886082 0.3563998 -0.11077218 0.36163726 -0.06550776 -0.1510916 -0.022098208 -0.057427738
-0.13064115 -0.22091214 -0.22754307 0.41545218 0.381748 -0.17549986 -0.04841871 0.29204425
-0.44278532 -0.09184048 0.17373352 -0.06607569 -0.121418685 -0.02921693 0.07754517 -0.009468761
0.21260436 -0.2932094 -0.29247758 -0.06410405 -0.16278689 -0.022654362 0.029358154 -0.2621655
-0.14123255 -0.19544393 0.23498137 0.24875844 -0.15452017 -0.11339918 -0.2190228 -0.14539905
-0.13038728 -0.15893401 0.12606637 -0.19718166 0.03437079 0.077152364 -0.026081748 -0.08741444
-0.094103344 0.07553107 -0.124295846 0.29581153 0.040184937 0.37678698 0.20220938 -0.20045233
0.27914304 0.0057458975 -0.122426316 0.056434702 0.0763058 0.21954355 -0.17363414 -0.21231788
0.02525163 0.005303785 0.035167966 -0.035782896 0.25708666 0.24255744 0.009699085 0.107834116
-0.084297806 0.021448601 0.33252585 -0.3355022 0.020539071 0.29700258 0.2817424 0.1807851
0.3186992 0.3920618 0.3573105 -0.19309688 0.12462014 0.09944465 0.09375128 0.072899826
-0.11228184 0.0077498807 0.2115946 -0.16861019 -0.046531197 0.08036045 0.33823946 0.16059248
-0.012732063 -0.24565963 -0.13005167 0.20677306 -0.19804431 -0.0866606 0.10252773 -0.22739007
-0.2658707 -0.02108812 0.25063643 0.085875906 0.033870123 -0.27269337 0.1096321 -0.17187332
-0.1942088 0.2875081 0.108620025 -0.20740211 -0.13314977 -0.33944532 -0.22749773 0.008562404
00000000: a3fe e53d adb8 843e 2e80 1cbe d5c7 6d3e
00000010: 6e41 c33e ba09 56be a6d7 99bd fb57 923e
00000020: f4ff 10be 965d d43e d651 33be 22ed 933e
00000030: 1e27 a9bc a2cc 953e 0232 d53d 2b71 04bd
00000040: a4df c9bd a124 983e 8b20 3cbe 10ad 613d
00000050: a29d 4ebe 30e5 07be e37b 203e aa29 a6bd
00000060: 86ab 88be f31c b9be 0d08 e83e 301f 83be
00000070: 5c8a 86be 3059 263e cd01 c03e 213e c33e
00000080: 9360 a7be 199b c33e 2a6b b5be 7788 24be
00000090: e524 943e a423 a83e db95 a03e 7c39 1bbe
000000a0: 07a7 eb3d 517b e33e 3415 2d3d 16d6 0fbe
000000b0: 098c 18be ac0c d9bd fef2 693e 1d91 a23e
000000c0: 4a16 2abc 222d c33e fe65 8fbd 298d 90be
000000d0: e5ca 19be 3b0e 6ebe 71e4 b1be d64a 55be
000000e0: 2e6e 53be 0d24 5c3e 347f 973e edc0 02be
000000f0: 6221 bdbd ff39 893e cec7 5dbe 9331 5c3b
00000100: d913 a6bc 2355 fdbd 6642 5fbe a17e 4ebe
00000110: 6509 023e 4880 ad3c c9b0 393e 3813 7abe
00000120: 653b 19be 6549 2fbe 0c8e a0be cd12 7fbd
00000130: 3c9e 21bc 0f30 fbbd 686c 3abe 5b88 71bd
00000140: 1bb3 6d3e e6a4 073e 95e5 55bd 5102 21be
00000150: 8ae3 45be 6195 e2bd eac6 133c f102 23bd
00000160: edab cd3c 5324 23be 0f2e 473e e2fd b23d
00000170: 41f7 78be 05fa 7c3e eaea dc3e 476c 9abd
00000180: 5528 873d b25e 45bc b0aa 5ebd 1fbd 7bbe
00000190: 4298 ddbe f042 7d3e c97f 833d 1f41 9f3e
000001a0: 879b ad3e 7b56 ccbd 98e5 853c 5cff 8fbd
000001b0: 70ee 00be dee2 31be de27 cc3c 2585 1bbe
000001c0: 47b0 783e 81e0 3f3d cd4f 9ebe 215e dcbe
000001d0: 2147 ab3e c3e1 44be 621c 18bd 33c3 3c3e
000001e0: 847e 89bd d68a 2a3e 00ca b2be 6329 4ebe
000001f0: d8f2 a1be 73e5 6bbe aa19 0dbe 75bd 21be
00000200: be50 20be 1eb8 e2bd 9de8 fc3d 14cf 4c3e
00000210: edce b03e e08d 4dbd 2163 4abe 8b68 c0bd
00000220: 74c4 933e 097a b63e 86dc e2bd 8528 b93e
00000230: ef28 86bd c2b7 1abe 4d07 b5bc 5939 6bbd
00000240: cbc6 05be cb36 62be 0d01 69be 26b6 d43e
00000250: 7974 c33e 3cb6 33be b252 46bd d386 953e
00000260: c2b4 e2be dd16 bcbd 33e7 313e b152 87bd
00000270: 5caa f8bd 5858 efbc 01d0 9e3d dd22 1bbc
00000280: f5b4 593e 8b1f 96be 9fbf 95be fc48 83bd
00000290: 9bb1 26be a495 b9bc 8380 f03c 8e3a 86be
000002a0: 449f 10be 7422 48be f59e 703e 88ba 7e3e
000002b0: 893a 1ebe d43d e8bd 8347 60be 7de3 14be
000002c0: 3e84 05be 99bf 22be 8b17 013e fde9 49be
000002d0: 63c8 0c3d 0f02 9e3d 64a9 d5bc 5806 b3bd
000002e0: 41b9 c0bd 09b0 9a3d d28e febd 9c74 973e
000002f0: f698 243d 39ea c03e fa0f 4f3e 6043 4dbe
00000300: d6eb 8e3e 1548 bc3b a6ba fabd 1328 673d
00000310: 3746 9c3d 06d0 603e 26cd 31be dc69 59be
00000320: 82dc ce3c 60cb ad3b 490c 103d 1691 12bd
00000330: dda0 833e fa60 783e e9e8 1e3c 22d8 dc3d
00000340: 54a4 acbd fab4 af3c d440 aa3e f2c6 abbe
00000350: 8e41 a83c b910 983e 8a40 903e bb1f 393e
00000360: 8b2c a33e 53bc c83e 67f1 b63e 30bb 45be
00000370: d838 ff3d a3a9 cb3d ac00 c03d 814c 953d
00000380: 05f4 e5bd b6f2 fd3b 41ac 583e 26a8 2cbe
00000390: 7f97 3ebd 0594 a43d b92d ad3e 5b72 243e
000003a0: 259a 50bc 338e 7bbe 442c 05be 51bc 533e
000003b0: 21cc 4abe 1d7b b1bd 0ffa d13d f1d8 68be
000003c0: 3420 88be fec0 acbc 6b53 803e b5df af3d
000003d0: 66bb 0a3d 779e 8bbe cb86 e03d 8fff 2fbe
000003e0: acde 46be 4334 933e 2d74 de3d 3861 54be
000003f0: 6a58 08be c7cb adbe 2af5 68be 5349 0c3c

layer1.bias f4 [16]
0.6611182 0.293169 0.3795967 0.2760792 0.51539934 0.35416064 0.6261902 0.36417815
0.147415 0.24801107 0.47627217 0.2843376 0.36150023 0.24143152 0.114871055 0.22330475
00000000: 0b3f 293f 3f1a 963e 805a c23e 415a 8d3e
00000010: 36f1 033f 8b54 b53e 004e 203f 8f75 ba3e
00000020: f5f3 163e 9df6 7d3e f2d9 f33e b394 913e
00000030: 8f16 b93e d339 773e 8441 eb3d 00aa 643e

layer2.weight f4 [16, 16]
-0.16580729 -0.6117994 0.39834607 0.9483113 0.73508316 0.3600899 0.043660164 0.30643225
-0.41088727 -0.40249142 0.045446936 0.047057673 -0.16227484 -0.36884642 -0.3988907 -0.1918017
-0.18882793 -0.170908 0.0672133 -0.14808267 -0.15220436 -0.20569038 0.037833244 0.122151345
-0.087224245 0.031621695 0.11885378 -0.21270907 0.0750092 0.029996842 -0.10331985 0.028232366
-0.33997253 -0.4393364 -0.17961402 0.58657 0.32405835 0.6134045 -0.09452949 -0.21408567
0.1023229 -0.22398871 0.24532871 0.48415634 0.29101315 0.24105333 0.62700176 0.29646787
-0.07510209 0.16205466 0.12991856 0.22259936 -0.21085137 -0.15013054 -0.24417411 0.1614443
0.2059081 -0.25168762 -0.14970502 -0.028110372 -0.16856772 -0.15189108 0.16239846 -0.08019717
-0.0030846102 -0.52283424 0.43112966 0.4775841 0.5487751 -0.0004314147 -0.17805365 0.23920798
-0.18718815 -0.4336034 0.21680367 0.36185575 -0.20072412 -0.03926996 -0.089921616 -0.116725884
0.8057699 -0.24392857 0.36063266 0.6543947 0.28654882 -0.054867506 0.9929245 0.1257759
-0.46203724 -0.10141868 -0.0024254723 -0.25133798 0.416704 -0.39637962 -0.1143708 -0.2848485
-0.13628164 -0.07199804 0.060182497 0.7992642 0.7403953 0.072418116 0.17232655 0.12822747
-0.5862372 -0.32163477 0.43770507 0.08025032 0.16967702 0.14701007 -0.38466492 -0.3077603
0.6857008 0.7903006 0.31731698 -0.9898584 0.003226108 -0.056849986 0.1681482 0.50586516
0.87359 0.7882319 -0.11922438 0.22814009 0.0886549 0.07668845 0.046183806 0.54667485
0.27251175 0.24395351 0.6765169 -0.08791715 0.36410323 0.01997955 -0.19103381 0.9160614
0.35720333 0.8670322 -0.07014042 0.19243777 -0.48559844 0.31572753 -0.15442702 -0.049951684
0.8278419 0.71462804 0.29558748 0.42039362 0.32101613 -0.45297423 0.90245 0.31318367
-0.24668919 -0.1540068 0.43387216 -0.4280583 0.7113608 -0.1352869 -0.4808996 -0.16196138
0.049211264 0.30905253 -0.5620507 -0.23455468 -0.04694468 0.43999356 0.37413692 -0.48786655
0.21903582 -0.07236305 0.666992 0.4026562 0.7136153 0.5521063 0.632461 0.5721028
0.146795 0.71257156 -0.6085853 -0.040528197 -0.097456805 0.21434063 0.223282 -0.5542638
-0.0590739 -0.09385044 0.7884224 0.6033431 0.8230454 0.5995943 0.30856723 0.40878364
0.3441093 0.5725993 0.44199625 0.25979266 0.572361 0.108425684 0.6268857 0.11765058
-0.3816454 0.2537217 0.82277924 0.15319648 0.6832622 0.56259483 -0.06795145 -0.24589348
0.058226258 0.31109023 0.40319803 -0.5142379 0.5439832 0.6441501 -0.79419297 0.5348878
0.3654686 0.2597948 0.073902786 0.42785922 0.44412464 0.48307705 0.43796116 0.53170604
-0.5141244 -0.35686448 0.22759536 0.5563403 0.28537297 0.3891419 0.050076917 0.20899925
-0.35336462 -0.03910572 0.20107399 0.4472434 -0.024028124 -0.08404805 -0.21574523 -0.23682143
0.4106114 -0.41220084 0.45395085 -0.3389129 0.6282027 0.6877882 -0.50820637 0.47879815
0.7800714 0.2135154 -0.019951586 0.41964227 -0.13379887 0.52212954 0.6055629 0.6390201
00000000: 63c9 29be e39e 1cbf 04f4 cb3e 88c4 723f
00000010: 692e 3c3f b45d b83e 00d5 323d b0e4 9c3e
00000020: d15f d2be 5b13 cebe 9126 3a3d 8cbf 403d
00000030: 602b 26be 70d9 bcbe 673b ccbe aa67 44be
00000040: 1c5c 41be 8202 2fbe 20a7 893d fca2 17be
00000050: 76db 1bbe 80a0 52be 08f7 1a3d 7c2a fa3d
00000060: a0a2 b2bd c085 013d 9c69 f33d 68d0 59be
00000070: 6c9e 993d f0bb f53c 5c99 d3bd 9047 e73c
00000080: e110 aebe b3f0 e0be bdec 37be 7429 163f
00000090: faea a53e 1408 1d3f ad98 c1bd 4639 5bbe
000000a0: ab8e d13d 4c5d 65be 7337 7b3e 57e3 f73e
000000b0: adff 943e afd6 763e 3083 203f a3ca 973e
000000c0: 20cf 99bd a8f1 253e 5f09 053e 16f1 633e
000000d0: 6ce9 57be d2bb 19be c708 7abe a851 253e
000000e0: 93d9 523e 33dd 80be 464c 19be b947 e6bc
000000f0: 049d 2cbe 5689 1bbe c84b 263e 6a3e a4bd
00000100: 2c27 4abb 77d8 05bf 07bd dc3e e785 f43e
00000110: 867c 0c3f 802f e2b9 b253 36be f0f2 743e
00000120: 40ae 3fbe 4401 debe c801 5e3e 2845 b93e
00000130: a08a 4dbe 8ad9 20bd d328 b8bd fb0d efbd
00000140: f046 4e3f 69c8 79be d8a4 b83e 6986 273f
00000150: 87b6 923e c0bc 60bd 4d30 7e3f 66cb 003e
00000160: 2590 ecbe 99b4 cfbd acf4 1ebb 5faf 80be
00000170: 3a5a d53e 45f2 cabe 3d3b eabd aad7 91be
00000180: 6a8d 0bbe b573 93bd ec81 763d 949c 4c3f
00000190: 8c8a 3d3f f34f 943d 5f76 303e 104e 033e
000001a0: a413 16bf 50ad a4be e11a e03e 485a a43d
000001b0: d0bf 2d3e cf89 163e cdf2 c4be c292 9dbe
000001c0: 168a 2f3f 2451 4a3f 5f77 a23e 5c67 7dbf
000001d0: 1c6d 533b 88db 68bd 0b2f 2c3e 6180 013f
000001e0: 98a3 5f3f 91c9 493f e92b f4bd 8e9d 693e
000001f0: b390 b53d d60e 9d3d 3b2b 3d3d e2f2 0b3f
00000200: a986 8b3e f3ce 793e 3630 2d3f e80d b4bd
00000210: bd6b ba3e 27ac a33c 5e9e 43be 0083 6a3f
00000220: 5be3 b63e d2f5 5d3f c8a5 8fbd 680e 453e
00000230: 5ca0 f8be 0aa7 a13e 1e22 1ebe 239a 4cbd
00000240: 72ed 533f ddf1 363f 3e57 973e d53d d73e
00000250: 3a5c a43e 3dec e7be f706 673f 9c59 a03e
00000260: 179c 7cbe f5b3 1dbe 7e24 de3e 752a dbbe
00000270: be1b 363f a688 0abe 7938 f6be 34d9 25be
00000280: c091 493d 223c 9e3e 8ee2 0fbf 1a2f 70be
00000290: 1149 40bd d646 e13e e08e bf3e a5c9 f9be
000002a0: ed4a 603e 1433 94bd fdbf 2a3f f428 ce3e
000002b0: 7eaf 363f d756 0d3f f7e8 213f 5475 123f
000002c0: 6e51 163e 176b 363f 3fcc 1bbf e500 26bd
000002d0: 6f97 c7bd 1c7c 5b3e 09a4 643e 3be4 0dbf
000002e0: 79f7 71bd a934 c0bd 0dd6 493f b274 1a3f
000002f0: 1ab3 523f 037f 193f 86fc 9d3e 174c d13e
00000300: 182f b03e de95 123f 554d e23e 8b03 853e
00000310: 4086 123f 490e de3d 957b 203f caf2 f03d
00000320: 0767 c3be d0e7 813e a9a1 523f 8adf 1c3e
00000330: 46ea 2e3f 3706 103f 212a 8bbd 80cb 7bbe
00000340: a87e 6e3d 3847 9f3e f96f ce3e 18a5 03bf
00000350: 7c42 0b3f 05e7 243f 3b50 4bbf 68ee 083f
00000360: b31e bb3e d303 853e 585a 973d 5d10 db3e
00000370: 4e64 e33e e055 f73e 723c e03e e31d 083f
00000380: a89d 03bf f1b6 b6be c20e 693e 516c 0e3f
00000390: 681c 923e 9b3d c73e 741d 4d3d e603 563e
000003a0: 35ec b4be 522d 20bd 57e6 4d3e 16fd e43e
000003b0: a1d6 c4bc 6221 acbd 51ec 5cbe 5181 72be
000003c0: a83b d23e fd0b d3be 3f6c e83e fe85 adbe
000003d0: e4d1 203f e312 303f d019 02bf 0825 f53e
000003e0: c2b2 473f c8a3 5a3e 8271 a3bc 5adb d63e
000003f0: 9202 09be 48aa 053f 2c06 1b3f d296 233f

layer2.bias f4 [16]
0.3989524 -0.113256514 0.09493203 -0.09916368 0.0882313 0.5739237 0.35889485 0.12206834
0.07602806 0.5198599 0.22089435 0.24353132 0.23372525 0.13164717 0.19935341 0.22901025
00000000: 7d43 cc3e 08f3 e7bd b96b c23d 5416 cbbd
00000010: 9db2 b43d aaec 123f 11c1 b73e f7fe f93d
00000020: 99b4 9b3d 8a15 053f 2132 623e 4660 793e
00000030: ac55 6f3e 84ce 063e 4d23 4c3e aa81 6a3e

layer3.weight f4 [16, 16]
-0.14864334 0.20585516 0.53729147 -0.08492204 0.029794103 -0.28019622 0.26444858 -0.36150867
-0.35710603 -0.026840804 0.6922726 0.6940898 0.66714483 0.15622185 0.34578916 -0.15569769
0.38566995 -0.11574915 -0.066885166 -0.16869095 -0.25791124 0.6649782 0.28746414 -0.016121455
-0.031190984 0.49252814 0.11604522 0.32182983 0.39849198 -0.20833056 -0.08534701 -0.14740425
0.46505043 -0.06726074 -0.37752685 0.11335793 0.3689221 0.7010694 0.45930582 -0.16312076
0.37813824 0.68370706 -0.34535357 -0.20983963 0.75106317 0.13330619 0.35844216 0.10829874
0.0426338 0.0071650147 -0.35436377 -0.13896495 0.15667681 0.019057551 -0.1840913 0.5615796
0.55810004 -0.10910912 -0.38689703 -0.36641777 0.36247355 0.6303701 -0.009582395 0.41069898
0.35747772 -0.22797501 -0.061082143 0.12763911 0.55079347 -0.40199924 0.4194565 0.15911923
0.45266658 -0.35388714 -0.05856954 -0.039083067 0.08292452 0.4752975 0.048436828 0.41768214
0.6387419 0.18781263 0.66200805 -0.03523371 0.4706603 0.14233443 0.3896478 -0.3905091
0.084937036 -0.062568314 0.114642926 -0.2902456 -0.108434714 0.123512655 0.6738421 0.262889
0.08276409 0.09711352 -0.18428022 -0.14260209 -0.015666872 -0.18561232 -0.02021724 -0.011658847
0.17173028 -0.19801673 0.026300043 -0.18006223 -0.13664278 -0.07959753 -0.15993333 0.05929905
0.631819 0.096918195 -0.103611484 0.18770781 0.63478476 0.54972 0.47293192 -0.2969625
-0.1719395 0.46233267 -0.73390126 -0.5426066 0.37543663 -0.07284847 0.21684052 0.07709519
-0.23308286 -0.1818752 0.24401653 0.027965004 -0.32768613 -0.30299747 -0.27118728 0.5086549
0.07449215 -0.398673 0.6678449 0.40400568 0.0526816 0.3616119 -0.41668496 0.4529601
-0.6274661 0.0047937334 -0.27284682 -0.109439336 -0.52984303 -0.16109908 -0.16003817 0.6339153
0.48955002 0.45411545 0.18158391 0.15035802 0.27975705 0.2517108 -0.4915218 0.17080435
0.20408937 -0.18443558 0.15940478 0.129583 0.31120855 -0.3448601 0.10019628 0.15846105
0.24499196 -0.43489245 -0.2027949 0.009794872 0.2234394 0.011835499 0.56864667 -0.03816563
-0.41785252 0.18648756 0.37971202 -0.17792341 -0.40985054 -0.34028056 -0.5947438 0.36136627
0.14443588 -0.3384482 0.2095445 0.15100922 0.059018023 0.44179896 0.045111034 0.37109727
0.6105104 0.21025991 0.4319204 0.11417258 0.39018714 0.025431663 0.23004255 -0.62959284
-0.42461595 -0.037721954 0.25720245 0.12683599 0.1322293 0.13606144 0.6190471 -0.3221497
-0.31914106 -0.18029675 0.8179501 -0.08715138 -0.15297511 0.09303411 0.1737242 -0.257931
-0.5724293 -0.040982682 0.459041 0.59403014 0.40292782 0.33217666 0.012676239 0.13862738
0.19306189 0.13278162 -0.51498646 -0.14585824 -0.12972297 0.5996709 0.2637986 0.3669829
0.12588535 0.8121195 0.21124913 0.055152338 0.3725072 -0.31602564 -0.26240784 0.03426074
0.8073648 0.071861655 0.67901486 0.22264326 0.93075424 -0.050500624 0.4517331 -0.17681815
0.15987033 -0.33575895 -0.023646487 0.010687321 0.025421146 0.08187895 1.0672747 0.48786274
00000000: f635 18be b2cb 523e ef8b 093f 9beb adbd
00000010: c312 f43c e175 8fbe ce65 873e aa17 b9be
00000020: 9ad6 b6be 3fe1 dbbc c738 313f deaf 313f
00000030: 01ca 2a3f 9ff8 1f3e 470b b13e 376f 1fbe
00000040: 8876 c53e e40d edbd 17fb 88bd 52bd 2cbe
00000050: f10c 84be 033c 2a3f 802e 933e 2411 84bc
00000060: 3c84 ffbc a62c fc3e 1ea9 ed3d e1c6 a43e
00000070: 2407 cc3e 9b54 55be 6aca aebd 24f1 16be
00000080: 171b ee3e 00c0 89bd 334b c1be 3428 e83d
00000090: 5ce3 bc3e 4979 333f 222a eb3e 2109 27be
000000a0: 569b c13e 6d07 2f3f 2fd2 b0be 33e0 56be
000000b0: ad45 403f 6b81 083e bb85 b73e bbcb dd3d
000000c0: c8a0 2e3d 80c8 ea3b 2b6f b5be d44c 0ebe
000000d0: e36f 203e 951e 9c3c 6e82 3cbe aec3 0f3f
000000e0: a5df 0e3f 9a74 dfbd 5e17 c6be 1c9b bbbe
000000f0: 2296 b93e ef5f 213f 7aff 1cbc 2347 d23e
00000100: 5207 b73e 4872 69be 4531 7abd d4b3 023e
00000110: cd00 0d3f d8d2 cdbe 01c3 d63e 27f0 223e
00000120: eac3 e73e b230 b5be 9de6 6fbd 9115 20bd
00000130: 55d4 a93d 325a f33e b265 463d 6fda d53e
00000140: 9784 233f f451 403e 5c79 293f 3951 10bd
00000150: 63fa f03e 1ec0 113e eb7f c73e cff0 c7be
00000160: 78f3 ad3d d123 80bd e9c9 ea3d 129b 94be
00000170: 0513 debd 34f4 fc3d ea80 2c3f 6399 863e
00000180: 3880 a93d 74e3 c63d f4b3 3cbe 4806 12be
00000190: d057 80bc 2811 3ebe a09e a5bc c004 3fbc
000001a0: 10da 2f3e e6c4 4abe 3073 d73c 3c62 38be
000001b0: 16ec 0bbe 0804 a3bd 90c5 23be 90e3 723d
000001c0: e4be 213f 0c7d c63d 4232 d4bd 7a36 403e
000001d0: 4181 223f 73ba 0c3f 2224 f23e 780b 98be
000001e0: e910 30be deb6 ec3e f4e0 3bbf 44e8 0abf
000001f0: 3b39 c03e 9431 95bd 710b 5e3e 15e4 9d3d
00000200: 46ad 6ebe 7e3d 3abe 78df 793e dd16 e53c
00000210: 7ac6 a7be 7c22 9bbe 0fd9 8abe 3537 023f
00000220: 578f 983d de1e ccbe e2f7 2a3f d5d9 ce3e
00000230: a9c8 573d 3225 b93e bb57 d5be 63ea e73e
00000240: 9ea1 20bf c014 9d3b 94b2 8bbe bb21 e0bd
00000250: cba3 07bf 28f7 24be 0ce1 23be 4648 223f
00000260: 4da6 fa3e d281 e83e 22f1 393e 74f7 193e
00000270: 513c 8f3e 3de0 803e bfa8 fbbe 56e7 2e3e
00000280: cefc 503e aedc 3cbe 023b 233e 68b1 043e
00000290: ba56 9f3e 8191 b0be b533 cd3d 9d43 223e
000002a0: 2cdf 7a3e 39aa debe 77a9 4fbe ac7a 203c
000002b0: 4ccd 643e aee9 413c d492 113f 9053 1cbd
000002c0: c4f0 d5be 98f6 3e3e 9d69 c23e 8e31 36be
000002d0: eed7 d1be 4139 aebe 2141 18bf 0005 b93e
000002e0: 00e7 133e 1549 adbe d592 563e 29a2 1a3e
000002f0: e2bc 713d 7933 e23e 59c6 383d 7600 be3e
00000300: 694a 1c3f 604e 573e ac24 dd3e 50d3 e93d
00000310: 9cc6 c73e 1056 d03c 4690 6b3e ff2c 21bf
00000320: 4367 d9be 5682 1abd 0ab0 833e 4be1 013e
00000330: 1e67 073e b153 0b3e df79 1e3f cef0 a4be
00000340: 7566 a3be b69f 38be 2e65 513f 6c7c b2bd
00000350: 82a5 1cbe ab88 be3d c2e4 313e 880f 84be
00000360: ba8a 12bf 75dd 27bd 6c07 eb3e 5c12 183f
00000370: 8e4c ce3e 0f13 aa3e 00b0 4f3c 56f4 0d3e
00000380: 04b2 453e e8f7 073e 27d6 03bf dd5b 15be
00000390: 19d6 04be 0884 193f 9c10 873e 2fe5 bb3e
000003a0: 17e8 003e 10e7 4f3f b151 583e 6be7 613d
000003b0: 44b9 be3e 1dce a1be 525a 86be fd54 0c3d
000003c0: 76af 4e3f 342c 933d ebd3 2d3f 98fc 633e
000003d0: e945 6e3f bed9 4ebd 9049 e73e d10f 35be
000003e0: 0cb5 233e 99e8 abbe 47b6 c1bc e019 2f3c
000003f0: 0240 d03c 27b0 a73d 759c 883f 25c9 f93e

layer3.bias f4 [16]
0.24550304 0.11208499 0.34057793 0.25506893 0.20012839 0.13344456 -0.21505377 0.22104625
0.24076185 0.31527826 0.18315718 -0.09545179 -0.1323904 0.1992294 0.35960403 -0.08307694
00000000: 2665 7b3e d18c e53d 3b60 ae3e 6598 823e
00000010: 75ee 4c3e b1a5 083e 0e37 5cbe f359 623e
00000020: 468a 763e 276c a13e 8e8d 3b3e 3a7c c3bd
00000030: 5991 07be cb02 4c3e 051e b83e 3e24 aabd

layer4.weight f4 [9, 16]
-0.5315881 -1.1673459 0.046335917 0.3132359 0.34575275 0.031964943 -0.13240725 -0.21085194
0.32386184 0.123835325 -0.124694936 0.09228507 -0.8439261 -0.32228786 -0.6977329 0.19252539
0.059558082 -0.9314469 -1.1581355 -0.44534925 0.016296772 0.27418566 -0.19093105 -0.4974188
0.40046397 0.14940389 -0.1756459 0.34335464 -0.30494857 0.34031874 -0.7717281 0.19770251
0.3542632 0.063691616 0.28466934 -0.4973514 -0.23927851 -0.3384912 -0.19840613 -0.25881758
-0.2564369 0.49995518 -0.3478658 -1.1006689 -0.8634538 0.172657 0.28302568 -1.2886178
-0.8709494 0.033908907 0.40831193 -0.1436752 0.014201261 0.28782725 0.20132422 0.4810568
-0.6428422 -0.112585604 -0.43642068 -0.63305706 -0.5815694 -1.1738796 0.45222166 -0.01965773
-1.0300645 -0.21243101 0.08398598 0.42906877 -0.22451311 -0.16358827 -0.07636589 -0.38695052
0.21089013 0.31053755 0.023786072 0.10655417 -0.32168797 -0.53531957 0.4010331 -0.83774114
-0.20088768 -0.7524687 0.28977734 0.13710442 0.21698853 0.3509962 0.22734359 0.1254799
-0.5871836 -0.39909223 0.43297166 -0.67113405 0.4004646 -0.52866083 -0.46621093 0.24523644
0.40080574 -0.3414417 -0.36036354 -1.0103335 0.0687405 0.21036206 -0.24510998 -0.6430283
0.25505376 -0.3141564 -0.00076823635 -0.27394179 0.32767272 0.2772574 -0.539151 0.24467461
0.31132808 -0.27708685 -0.55827224 -0.28645176 0.11374798 -0.43550503 -0.1836381 -0.6848312
0.27346522 0.35481405 -0.005237756 -0.021502653 -0.26206282 0.1264338 0.042082533 -0.29888928
0.11143776 0.20434505 0.2410457 -0.687555 -0.5454007 0.1950514 -0.0759643 0.17620097
-0.75312126 -0.72619325 0.04608134 -0.7809636 0.49802715 -0.121939085 0.23550548 -0.31974244
00000000: 2816 08bf 976b 95bf bbca 3d3d 7560 a03e
00000010: 8106 b13e aced 023d c495 07be 92e9 57be
00000020: 38d1 a53e 609d fd3d 0f60 ffbd f4ff bc3d
00000030: 8a0b 58bf ea02 a5be a09e 32bf 6025 453e
00000040: 2df3 733d 4e73 6ebf c93d 94bf d104 e4be
00000050: cf80 853c 1062 8c3e 6e83 43be adad febe
00000060: 9d09 cd3e 55fd 183e 85dc 33be 2ecc af3e
00000070: 3822 9cbe 423e ae3e f98f 45bf 8772 4a3e
00000080: fc61 b53e c070 823d 2ec0 913e d8a4 febe
00000090: 6d05 75be b84e adbe fa2a 4bbe bd83 84be
000000a0: b34b 83be 20fa ff3e 771b b2be b8e2 8cbf
000000b0: 4f0b 5dbf ffcc 303e bee8 903e 6ef1 a4bf
000000c0: 8af6 5ebf 11e4 0a3d 430e d13e 971f 13be
000000d0: 68ac 683c 185e 933e f027 4e3e 144d f63e
000000e0: 4e91 24bf 4893 e6bd 8872 dfbe 0710 22bf
000000f0: bbe1 14bf b041 96bf 9989 e73e 3f09 a1bc
00000100: 27d9 83bf 8487 59be d700 ac3d e7ae db3e
00000110: c4e6 65be af83 27be b865 9cbd 611e c6be
00000120: 95f3 573e c7fe 9e3e 02db c23c 1339 da3d
00000130: 49b4 a4be b40a 09bf 3654 cd3e 3476 56bf
00000140: 80b5 4dbe caa1 40bf b25d 943e 1a65 0c3e
00000150: 3e32 5e3e c6b5 b33e c2cc 683e ce7d 003e
00000160: aa51 16bf d155 ccbe 76ae dd3e 71cf 2bbf
00000170: b209 cd3e 5156 07bf 33b3 eebe 431f 7b3e
00000180: 6936 cd3e 72d1 aebe 9281 b8be 9c52 81bf
00000190: d2c7 8c3d 2769 573e 1cfe 7abe 819d 24bf
000001a0: 6896 823e 1cd9 a0be 7863 49ba 1942 8cbe
000001b0: b8c4 a73e aff4 8d3e cd05 0abf fb8b 7a3e
000001c0: 6566 9f3e 54de 8dbe eeea 0ebf cea9 92be
000001d0: b3f4 e83d 84fa debe a00b 3cbe 1951 2fbf
000001e0: a203 8c3e 30aa b53e 7ba1 abbb 5526 b0bc
000001f0: 192d 86be dd77 013e bc5e 2c3d 0408 99be
00000200: 7b39 e43d d43f 513e afd4 763e 9b03 30bf
00000210: 619f 0bbf 8ebb 473e 2c93 9bbd 076e 343e
00000220: 8ecc 40bf cde7 39bf cabf 3c3d 3bed 47bf
00000230: 6afd fe3e 33bb f9bd 5928 713e 48b5 a3be

layer4.bias f4 [9]
-0.108131476 -0.018915392 0.1314352 -0.07175136 0.075548895 0.19158421 -0.10412873 -0.22947308
0.040538456
00000000: 0974 ddbd 74f4 9abc f396 063e 61f2 92bd
00000010: 61b9 9a3d a72e 443e 7241 d5bd fefa 6abe
00000020: a70b 263d
